02-pytorch-mlp-hands-on/sample_classifier.pt (torch, 2651 bytes, 4 tensors)

weight f4 [16, 2]
0	0xbbad7900	-0.0052939653
1	0x3ec2369e	0.37932295
2	0xbf14fcb1	-0.58198076
3	0xbf05381d	-0.5203875
4	0xbe8b70d6	-0.27234524
5	0x3e422aac	0.1896159
6	0xbc658a40	-0.014010012
7	0x3f0f8741	0.56065756
8	0xbd8083e0	-0.06275153
9	0x3e3f9998	0.18710935
10	0xbe5ad35c	-0.2136969
11	0xbe0e541c	-0.13899273
12	0xbf2cefc2	-0.6755334
13	0xbeefc590	-0.46830416
14	0xbe953d9f	-0.29148576
15	0x3cd69440	0.026193738
16	0x3e8f206a	0.27954417
17	0x3ed93b42	0.42428023
18	0xbef570de	-0.47937673
19	0xbe9da786	-0.30791873
20	0x3e837fa6	0.25683326
21	0x3f1650f7	0.5871729
22	0xbe1503e8	-0.14552271
23	0x3f07757b	0.52913636
24	0xbde96b20	-0.113973856
25	0x3d993c38	0.07482189
26	0x3f23e8a1	0.6402684
27	0xbf27ed20	-0.655962
28	0xbee3eac5	-0.44515052
29	0xbe374fac	-0.17901486
30	0xbe8d1f66	-0.27563018
31	0x3f1c669d	0.61094075

bias f4 [16]
0	0xbeeaaa86	-0.45833224
1	0xbea6a886	-0.32550448
2	0xbefcef53	-0.4940134
3	0xbf298920	-0.6622486
4	0xbed3562d	-0.41276684
5	0x3f1b9a97	0.6078276
6	0x3ea18c5e	0.31552404
7	0x3eaf785e	0.3427152
8	0x3d185250	0.037187874
9	0xbeb99c7b	-0.36252198
10	0x3df50170	0.11963165
11	0xbf29044d	-0.6602219
12	0xbf02cc68	-0.5109315
13	0xbebaa44c	-0.36453474
14	0x3ee46c86	0.44614047
15	0x3ed4455e	0.41459173

weight f4 [2, 16]
0	0xbde311c8	-0.11087376
1	0xbc13cb20	-0.009020597
2	0x3e23ba40	0.15989017
3	0x3e7e7f82	0.24853328
4	0x3dcb3424	0.099220544
5	0x3d0a55c8	0.033773214
6	0x3e2ba4fe	0.16762158
7	0xbe16bbc0	-0.14720058
8	0x3d3ed0f8	0.046586007
9	0xbe467a6c	-0.19382638
10	0xbe316e18	-0.17327154
11	0xbe043ed2	-0.12914589
12	0x3de7aa8c	0.11311826
13	0x3dcde7f8	0.1005401
14	0xbe17a46a	-0.14808813
15	0x3d9aadc8	0.075526774
16	0x3e0c896e	0.137243
17	0xbd013f20	-0.03155434
18	0x3c1c6440	0.009545386
19	0x3d6d4400	0.057926178
20	0x3e1ed100	0.15509415
21	0x3e75cf48	0.24004853
22	0xbe454796	-0.19265589
23	0xbdbba1ec	-0.091617435
24	0x3dc93898	0.098252475
25	0x3e541bd0	0.20713735
26	0x3e5ec5e8	0.21755183
27	0x3e61e222	0.22058919
28	0x3d4bca78	0.049753636
29	0xbe5e9cf8	-0.21739566
30	0x3cbc6690	0.022998124
31	0xbe2027ac	-0.15640134

bias f4 [2]
0	0xbe6e948c	-0.23298854
1	0x3e63743e	0.22212312
